02 Diabetes Prediciton - Pytorch/diabetes.pt (torch, 5471 bytes, 6 tensors)

weight f4 [20, 8]
0.5560107 -0.63574505 0.21159689 0.0051924568 -0.6530858 0.38231498 0.5760963 0.019089615
-0.1559712 0.2691408 -0.34036374 -0.16100878 0.23509306 -0.19568416 0.12821478 0.09079085
-0.17104524 -0.095313966 0.07555738 -0.4152521 0.07053384 -0.18239453 0.32315922 -0.25779817
-0.2932033 -0.019518413 0.13158637 0.1836653 0.040296182 0.18266103 -1.8387187 -0.39136726
0.26417264 -0.10538086 -0.12172225 -0.123435184 -0.18394393 -0.0153849125 -0.19067895 0.10261753
-0.5027024 0.2358956 -0.09820765 0.018255008 0.097282544 -0.28717566 -1.2276641 -0.5729933
0.21286766 -0.36579514 -0.31992155 -0.02586967 0.12062451 0.27988157 -0.98228955 0.5173828
-0.06528848 0.3018918 -0.12947544 0.21838944 0.23959327 -0.15726222 0.19495039 0.24162169
-0.41231516 0.10576165 -0.4051584 0.19077498 0.06451879 -0.37468144 0.42594245 0.44694328
-0.08945926 0.16273785 0.0684189 -0.3740645 -0.014518338 -0.3077446 -1.3729081 0.26496425
-0.30624175 -0.40660015 0.30231026 0.28749433 0.12627797 -0.1851619 1.4173784 -0.9251607
-0.10419223 0.2798311 -0.39126712 -0.5569807 -0.13479926 0.20916322 -0.50920653 -0.23967424
0.32304123 0.15175542 -0.33359253 0.41824612 0.20236318 -0.07314416 -0.4999554 -0.33998114
0.041530337 -0.24126773 0.33428645 0.2950415 -0.08116628 -0.26518014 -0.5301403 0.21696171
-0.725906 -0.0038809802 0.09645013 0.287815 0.28054783 -0.27653417 0.9389282 -0.30685207
-0.24766023 0.3239794 0.03220007 0.13262302 -0.20195979 0.12233961 0.64374644 0.25362894
-0.2838233 0.23029085 0.010311316 0.041975208 -0.11868486 -0.24253514 -0.78491354 0.2652878
0.10648155 -0.24656753 0.032443345 -0.045393556 0.07644385 -0.13876458 0.21923432 -0.29843345
0.04052412 -0.18027979 0.26869524 -0.30936137 0.07910222 0.31946132 -1.4632673 -0.21985088
0.5533458 -0.17549038 0.19036943 -0.12849842 0.094551824 0.06918278 1.1028613 -0.10934076
00000000: b856 0e3f 30c0 22bf dbac 583e 7c25 aa3b
00000010: a230 27bf cabe c33e 0c7b 133f d361 9c3c
00000020: eab6 1fbe d3cc 893e 2844 aebe 7cdf 24be
00000030: 3cbc 703e 6e61 48be bc4a 033e 8ef0 b93d
00000040: 7c26 2fbe f833 c3bd d4bd 9a3d ec9b d4be
00000050: 0c74 903d a2c5 3abe 2075 a53e 1ffe 83be
00000060: be1e 96be 14e5 9fbc 94be 063e c212 3c3e
00000070: 9c0d 253d 7e0b 3b3e 225b ebbf 4a61 c8be
00000080: a341 873e ecd1 d7bd 8449 f9bd 96cb fcbd
00000090: cc5b 3cbe 0011 7cbc 5841 43be 2429 d23d
000000a0: 1bb1 00bf 9e8e 713e 1821 c9bd 878b 953c
000000b0: 123c c73d b008 93be 1924 9dbf b0af 12bf
000000c0: fbf9 593e 8049 bbbe c2cc a3be a1ec d3bc
000000d0: fc09 f73d a34c 8f3e 5477 7bbf 3373 043f
000000e0: f7b5 85bd 9091 9a3e 3695 04be 7ba1 5f3e
000000f0: f057 753e 5909 21be 13a1 473e ad6b 773e
00000100: f91a d3be 9099 d83d ec70 cfbe 845a 433e
00000110: 6d22 843d 3fd6 bfbe 2115 da3e c0d5 e43e
00000120: 6b36 b7bd c0a4 263e 351f 8c3d 6285 bfbe
00000130: 53de 6dbc b390 9dbe 74bb afbf 65a9 873e
00000140: b8cb 9cbe e52d d0be 69c8 9a3e 7532 933e
00000150: 034f 013e 159b 3dbe a86c b53f 55d7 6cbf
00000160: bc62 d5bd 0646 8f3e 2a54 c8be 4a96 0ebf
00000170: d108 0abe e22e 563e 5c5b 02bf 2a6d 75be
00000180: a965 a53e c665 1b3e a4cc aabe 5b24 d63e
00000190: 4b38 4f3e 9bcc 95bd 27fa ffbe 0212 aebe
000001a0: b71b 2a3d e30e 77be 9827 ab3e ae0f 973e
000001b0: 823a a6bd b1c5 87be 46b7 07bf 362b 5e3e
000001c0: fad4 39bf 0b58 7ebb a587 c53d 7d5c 933e
000001d0: f7a3 8f3e e395 8dbe 995d 703f b71b 9dbe
000001e0: a59a 7dbe a1e0 a53e 38e4 033d 54ce 073e
000001f0: 8cce 4ebe 308d fa3d 91cc 243f a7db 813e
00000200: 4a51 91be 5dd1 6b3e cbf0 283c 32ee 2b3d
00000210: 0c11 f3bd 225b 78be 18f0 48bf cdd3 873e
00000220: 0013 da3d 337c 7cbe 50e3 043d 98ee 39bd
00000230: 988e 9c3d 4d18 0ebe f67e 603e 45cc 98be
00000240: 9ffc 253d 449b 38be 6c92 893e 9d64 9ebe
00000250: 5800 a23d 6f90 a33e 584c bbbf 9720 61be
00000260: 12a8 0d3f c0b3 33be 34f0 423e 1795 03be
00000270: 63a4 c13d b4af 8d3d 8f2a 8d3f 0cee dfbd

bias f4 [20]
-0.16777158 -1.2346872 -0.33476812 1.8863022 0.080328345 0.2844471 -0.5676842 0.32581872
0.8886411 1.8884994 0.10541667 0.37094823 -0.18315832 1.5744629 -0.51775825 -1.1878042
1.2680871 -0.055208296 2.1944962 -0.27438113
00000000: 50cc 2bbe 3b0a 9ebf ba66 abbe 5a72 f13f
00000010: 3083 a43d 0da3 913e c053 11bf b6d1 a63e
00000020: fc7d 633f 59ba f13f b2e4 d73d edec bd3e
00000030: db8d 3bbe 0088 c93f ce8b 04bf f809 98bf
00000040: ae50 a23f 1822 62bd a072 0c40 af7b 8cbe

weight f4 [20, 20]
-0.2769855 -0.022247441 0.07105389 0.263503 -0.18001318 0.067514226 -0.25189984 0.11562737
-0.12797521 0.13453722 1.312964 0.211013 0.019039504 0.07291794 0.09003197 -0.1578617
0.18994763 -0.11944218 -0.07285998 0.20149402 0.1366854 -0.029850677 0.14969257 0.18696563
0.09506208 0.25022388 0.045009356 0.03184122 -0.20287672 0.091431804 0.77454185 0.3886463
0.05688718 -0.031838417 -0.20667593 -0.061252773 0.1017401 -0.15591198 0.27598208 -0.08431118
0.021811444 0.059231233 -0.044343825 0.04141778 0.20327401 0.0030119345 0.09981282 -0.26278177
-0.104451336 -0.15341233 0.14848824 0.19023374 -0.063616134 0.041192755 0.086677395 -0.14331238
0.017064307 0.16119269 -0.20127495 -0.21146171 -0.31202883 0.026775537 0.039913744 -0.16461283
0.142566 -0.28010884 -0.110576235 -0.1741198 0.064405315 -0.3430799 0.18884398 -0.32613528
-0.066902824 -0.15544115 -0.08093794 0.09393474 -0.02228204 0.047580063 0.061803196 0.06577925
0.41989893 -0.07252231 -0.0983363 -0.11774002 -0.18264818 -0.64821744 0.43936393 0.1561151
-1.1439104 -0.17146589 -0.7832774 0.042792767 -0.26325223 -0.031940278 0.22393572 -0.057952918
-0.16744839 -0.011349484 -0.023386389 0.14882627 0.4332105 0.0371207 -0.0591582 -0.21920902
-0.0057946146 0.10439796 0.10491677 0.18673415 0.07339548 0.045249123 -0.9823362 -0.14305812
-0.1750124 0.1252762 -0.096932456 0.09860142 0.054414988 -0.16257675 -0.032473918 0.013883071
-0.15229376 -0.03039676 0.01783229 -0.0913874 0.1057848 -0.045860026 -0.20871705 0.1924111
0.039547727 -0.10475564 1.1247127 0.1151313 -0.08605562 -0.1053442 -0.024229413 -0.13961977
0.1439741 0.1551468 0.24972978 0.14058949 0.22744103 0.046238862 -0.029995397 0.36784294
-0.12302731 -0.20693359 -1.5373168 -0.27942905 0.110751644 -0.026298378 0.3722857 -0.068488814
-0.25241882 -0.21936415 -0.26679015 0.15029407 -0.15876803 -0.10309565 -0.11179709 0.14004922
0.12674612 -0.2215684 -0.010765184 -0.051367387 -0.18361723 0.10924646 -0.12999281 -0.21202566
0.069822334 -0.017237095 0.08377112 -0.31568387 -0.0519583 -0.04654714 0.048927248 0.102735505
-0.15746993 -0.051296905 -0.072208434 -0.19737135 -0.10720165 -0.016852379 -0.10209309 -0.013494932
-0.1781485 -0.07593256 -0.112255484 -0.26215777 0.119333714 -0.050760105 0.14114448 0.11085445
0.03517154 0.14343244 -0.16285597 -0.061873056 -0.23444442 0.19816312 -0.048542257 -0.21383229
-0.37178764 -0.3964833 -0.0067554642 0.0016140614 -0.17340696 -0.2858326 -0.6325223 -0.28580442
0.0135831805 0.15511942 0.08577359 0.3702912 -0.17008762 0.36034292 0.07667763 0.025715763
-0.08968701 -0.19230933 0.46098673 0.11762839 -0.049284928 0.01641153 0.13163942 -0.016368825
0.17586952 0.15240583 0.052795287 0.19261718 0.0536503 -0.099987425 0.9520532 0.04282487
0.18720372 0.67060834 0.05093943 -0.21274996 -0.08370617 -0.1591304 -0.0884118 -0.19831012
-0.030920513 0.007871781 0.03779021 -0.32749918 -0.17202726 0.026851883 0.1610096 0.15375175
-0.0894649 -0.0031784277 -0.8150593 -0.14016451 0.101026066 0.16045146 0.07337654 0.10188481
00000000: 0bd1 8dbe 4440 b6bc b484 913d dde9 863e
00000010: 6055 38be e644 8a3d 04f9 80be 0bce ec3d
00000020: ef0b 03be 20c4 093e 340f a83f cb13 583e
00000030: bcf8 9b3c 0056 953d ae62 b83d 7fa6 21be
00000040: a281 423e 1a9e f4bd 9d37 95bd 7354 4e3e
00000050: 42f7 0b3e 6889 f4bc 0249 193e eb73 3f3e
00000060: e8af c23d 581d 803e bb5b 383d f06b 023d
00000070: eabe 4fbe 9940 bb3d 6048 463f a6fc c63e
00000080: 8802 693d 0069 02bd dba2 53be 30e4 7abd
00000090: 1d5d d03d 64a7 1fbe 864d 8d3e 57ab acbd
000000a0: eaad b23c 739c 723d dfa1 35bd b1a5 293d
000000b0: 1027 503e e063 453b aa6a cc3d 558b 86be
000000c0: 95ea d5bd 1f18 1dbe 4d0d 183e a2cc 423e
000000d0: 2d49 82bd bcb9 283d eb83 b13d 7bc0 12be
000000e0: 72ca 8b3c b20f 253e 051b 4ebe 6b89 58be
000000f0: 3ec2 9fbe 5f58 db3c 987c 233d 4490 28be
00000100: d2fc 113e 6d6a 8fbe cb75 e2bd 764c 32be
00000110: efe6 833d 2ba8 afbe 5160 413e 34fb a6be
00000120: 5904 89bd f72b 1fbe cac2 a5bd db60 c03d
00000130: d388 b6bc 50e3 423d 5925 7d3d 45b7 863d
00000140: fefc d63e 9486 94bd 8b64 c9bd ae21 f1bd
00000150: 2008 3bbe 94f1 25bf 4ff4 e03e a3dc 1f3e
00000160: a86b 92bf c194 2fbe de84 48bf 7847 2f3d
00000170: ffc8 86be cfd3 02bd 684f 653e 0a60 6dbd
00000180: 9777 2bbe 30f3 39bc d094 bfbc ea65 183e
00000190: c4cd dd3e e00b 183d de4f 72bd 5478 60be
000001a0: c0e0 bdbb 99ce d53d 9ade d63d 3d37 3f3e
000001b0: 5f50 963d 2557 393d 637a 7bbf d47d 12be
000001c0: 7336 33be 6748 003e 8684 c6bd 8bef c93d
000001d0: 40e2 5e3d 857a 26be 5f03 05bd d275 633c
000001e0: e5f2 1bbe a002 f9bc 0615 923c 5129 bbbd
000001f0: b4a5 d83d b9d7 3bbd ecb9 55be 6a07 453e
00000200: ccfc 213d 208a d6bd 96f6 8f3f f6c9 eb3d
00000210: ee3d b0bd b3be d7bd c37c c6bc 7cf8 0ebe
00000220: f26d 133e cede 1e3e 2ab9 7f3e b1f6 0f3e
00000230: 4de6 683e f664 3d3d e8b8 f5bc e955 bc3e
00000240: bef5 fbbd 66e6 53be ccc6 c4bf 5311 8fbe
00000250: c2d1 e23d b26f d7bc 3b9c be3e dd43 8cbd
00000260: 0a3d 81be ffa0 60be b898 88be b0e6 193e
00000270: 1694 22be d023 d3bd dff5 e4bd 1069 0f3e
00000280: bcc9 013e d4e2 62be 7460 30bc 9c66 52bd
00000290: 2806 3cbe 9cbc df3d d61c 05be 411d 59be
000002a0: 03ff 8e3d cf34 8dbc 3190 ab3d 51a1 a1be
000002b0: 3ad2 54bd 37a8 3ebd f067 483d fe66 d23d
000002c0: cc3f 21be b41c 52bd 04e2 93bd b71b 4abe
000002d0: 8a8c dbbd 000e 8abc 2f16 d1bd d919 5dbc
000002e0: 8f6c 36be 8882 9bbd 34e6 e5bd 8b39 86be
000002f0: 3c65 f43d d4e9 4fbd 2e88 103e a807 e33d
00000300: 0810 103d f4df 123e b7c3 26be 9a6e 7dbd
00000310: 3312 70be 46eb 4a3e 3fd4 46bd daf6 5abe
00000320: f35a bebe dcff cabe f15c ddbb ea8e d33a
00000330: 9891 31be a758 92be fbec 21bf f554 92be
00000340: fd8b 5e3c a0d7 1e3e 10aa af3d cf96 bd3e
00000350: 732b 2ebe de7e b83e 2909 9d3d dda9 d23c
00000360: d3ad b7bd bdec 44be 7406 ec3e 27e7 f03d
00000370: fede 49bd 7971 863c 7ccc 063e ea17 86bc
00000380: 2417 343e 4610 1c3e df3f 583d 703d 453e
00000390: 6bc0 5b3d 35c6 ccbd c2b9 733f 2269 2f3d
000003a0: 55b2 3f3e fdac 2b3f dda5 503d 20db 59be
000003b0: 246e abbd 14f3 22be 3f11 b5bd cf11 4bbe
000003c0: 044d fdbc a4f8 003c e8c9 1a3d f9ad a7be
000003d0: ea27 30be 7bf8 db3c b3df 243e 1971 1d3e
000003e0: 6039 b7bd 2b4d 50bb baa7 50bf 4987 0fbe
000003f0: c1e6 ce3d 634d 243e 7046 963d fca8 d03d

bias f4 [20]
0.9508523 1.2835258 -0.085710056 -0.17796022 -1.2163277 -0.7764276 0.94191563 -0.21485534
-0.075798266 -0.16300617 0.5334604 0.75258815 -0.88529474 -0.16989599 -0.42927513 -1.5019989
-1.4028057 -0.14672723 0.118866906 1.3482717
00000000: 0e6b 733f 934a a43f c188 afbd 343b 36be
00000010: a0b0 9bbf f6c3 46bf 6221 713f 0a03 5cbe
00000020: 1f3c 9bbd 17eb 26be dc90 083f 9ea9 403f
00000030: ada2 62bf 37f9 2dbe f3c9 dbbe 8041 c0bf
00000040: 238f b3bf aa3f 16be 7e70 f33d 2b94 ac3f

weight f4 [2, 20]
0.10266124 0.3289474 -0.14511767 0.14609246 -0.826655 0.0124307405 -0.039492585 0.11793432
0.266842 -0.10186874 0.45087537 0.08232034 -0.22397879 0.018267602 0.011440087 -0.14918981
-0.13326478 -0.061499402 0.055825505 0.3239611 -0.093733765 0.042719617 -0.09613634 0.055473384
0.51250213 0.20662752 -0.12673019 0.0828871 0.15128271 -0.16168787 -0.50288707 -0.13583262
0.08062326 0.03416106 0.08330543 0.29373348 0.26522 0.09325552 0.056279156 -0.24336495
00000000: 0e40 d23d cb6b a83e ba99 14be 4399 153e
00000010: a99f 53bf 4eaa 4b3c fac2 21bd 8c87 f13d
00000020: 849f 883e 8fa0 d0bd 23d9 e63e 9197 a83d
00000030: b25a 65be f0a5 953c 346f 3b3c 37c5 18be
00000040: 9076 08be cce6 7bbd 49a9 643d 3bde a53e
00000050: 7df7 bfbd c4fa 2e3d 21e3 c4bd 0f38 633d
00000060: 5733 033f 2a96 533e 8fc5 01be b6c0 a93d
00000070: dbe9 1a3e 8191 25be 35bd 00bf b517 0bbe
00000080: cf1d a53d 78ec 0b3d 0a9c aa3d 3c64 963e
00000090: eaca 873e c0fc be3d f984 663d a934 79be

bias f4 [2]
0.91070276 -1.2558017
00000000: d123 693f 1cbe a0bf
