04 Image Classification Using Logistic Regression - PyTorch/mnist-logistic.pth (torch, 32511 bytes, 2 tensors)

linear.weight f4 [10, 784]
000000 b8 1f 70 3c 50 28 a9 3b c8 91 da 3c d0 84 31 3c
       0.014656 0.0051622763 0.026680842 0.010834888
000010 68 80 83 3c 3a 9c af 3c c0 a3 be 3b 8e b3 3b bc
       0.01605244 0.0214368 0.0058178604 -0.011456383
000020 0a c2 84 bc 2d 7a 02 bd 0e 19 82 bc 56 9c b3 3c
       -0.016205806 -0.031854797 -0.015881088 0.021925133
000030 50 94 41 3c fe 15 d5 bb 2f a9 e0 bc af 6c 2d 3c
       0.011815146 -0.006502866 -0.027424423 0.010584994
000040 78 3d c9 bb 87 4a 07 bd d6 95 f5 3c 00 90 29 b7
       -0.006141361 -0.03303006 0.029978674 -1.0106713e-05
000050 2c c3 b8 3c dc aa b6 bc d4 aa 6a 3c 68 86 84 3c
       0.022554003 -0.022298269 0.014322955 0.016177371
000060 7f 91 00 3d e0 bc 7d bc 08 81 c6 bb 80 b0 7e 3c
       0.031388756 -0.015486926 -0.006057862 0.015545011
000070 68 af e4 bc 3a 9f ca bc 3d 0a 05 bd e0 f6 22 3b
       -0.027915671 -0.024734128 -0.032480467 0.0024866387
000080 1f df d3 bc 71 c1 a4 bc a1 52 f4 bb 16 be e7 3c
       -0.025863228 -0.020111771 -0.007456139 0.028288882
000090 2f e3 ef bc 90 ed 94 3c 85 45 0b bd b4 fb c5 38
       -0.029283134 0.018179685 -0.034001846 9.4405754e-05
0000a0 cf b7 c6 3c 48 45 c3 bc 59 bd bd 3c f0 5d 77 bc
       0.024257569 -0.023836747 0.023161577 -0.01509808
0000b0 47 34 a9 bc 1f 96 62 3c 62 d2 a7 bc 93 1b 1c ba
       -0.02065481 0.013829737 -0.02048606 -0.00059550366
0000c0 d6 63 70 bc bb 0c a4 3c e8 90 07 bc 56 b0 29 bc
       -0.01467224 0.020025602 -0.008274294 -0.010356983
0000d0 52 87 04 bd 78 ad eb bc 7c 1f bf 3c 8f 72 0f 3d
       -0.032355614 -0.02876924 0.023330443 0.03502136
0000e0 73 42 c8 bc 4c 37 ad 3c 57 de 23 bc ec c5 0e 3d
       -0.024445748 0.021144532 -0.01000174 0.03485672
0000f0 2b de c9 3c e5 7d e9 3b 72 6b b8 bc 42 09 87 bc
       0.02464207 0.0071256035 -0.022512171 -0.016483907
000100 53 88 f4 bc df 02 4f bc 9e 0a c8 3c 28 ac 66 bc
       -0.02985016 -0.012634962 0.024419125 -0.014079131
000110 1b a6 01 bd df fa b4 3b ad 4f 3d 3c a3 ca 3e bc
       -0.03165255 0.00552307 0.011554641 -0.011644992
000120 78 27 f3 bc d9 88 24 bc 2b 2c d4 3c 65 17 bf bc
       -0.029681906 -0.010042393 0.025899967 -0.023326585
000130 68 64 d4 bc 97 ea 49 bc 93 4c 00 bc 8b 29 c6 3c
       -0.025926784 -0.012323997 -0.007830757 0.024189731
000140 a3 ac b7 3b e3 ad d2 bb 62 7f f9 3c 41 71 02 3d
       0.0056052967 -0.0064294203 0.030456249 0.03184629
000150 43 a2 95 bc 38 3e 67 bc cb 7c ad bc 58 de ce 3c
       -0.018265849 -0.014113955 -0.02117767 0.025252506
000160 25 2e 11 3d 38 b2 c9 3c 0b 0b de bc 62 8d 27 bc
       0.035444397 0.024621114 -0.027104875 -0.010226579
000170 46 d7 0f bd a7 16 1f bd c9 59 d8 3c b2 0a 52 bc
       -0.03511741 -0.038839962 0.02641 -0.012819933
000180 7c 7c 29 bd 8c 2b 0f 3c 45 91 b6 bb 69 37 ac bc
       -0.041378483 0.00873841 -0.0055715167 -0.021022515
000190 51 56 d5 bc 12 61 f0 bc 15 33 15 bc 89 83 e5 3b
       -0.026042135 -0.029343162 -0.009106417 0.0070042056
0001a0 33 da 43 3a 30 a1 71 bb 3e b2 ab 3c 05 39 f0 bc
       0.0007471174 -0.0036869757 0.020959016 -0.029324064
0001b0 8d e5 ee bc e6 84 04 3d 61 8f 7b 3c 50 d4 7c 3b
       -0.029162193 0.032353304 0.015354008 0.0038578697
0001c0 34 ad 0d bd 80 54 da b9 32 ef 0f 3d f0 ea 0d bc
       -0.034589007 -0.00041643158 0.035140224 -0.0086619705
0001d0 c5 43 c9 3c 3b 86 26 bc 8c 20 9d bc 0d 44 e0 3c
       0.024568448 -0.010163839 -0.019180559 0.0273762
0001e0 96 91 10 bd d7 d9 e3 bc d0 eb e8 bc 89 cc 71 bc
       -0.03529509 -0.027813835 -0.028432757 -0.014758238
0001f0 1e 90 3a bd 0a 2d e4 3c 2d 2a ae 3c 63 34 47 3c
       -0.045547597 0.027853508 0.021260345 0.012158486
000200 28 e1 9e 3c 64 f3 e1 bc 2c 32 e5 3c 14 9f e7 3c
       0.019394472 -0.027581878 0.027978025 0.028274097
000210 a5 8b 5b bc f6 43 57 bc d2 e3 70 bc 0b 81 73 3c
       -0.013399993 -0.013138762 -0.014702754 0.014862309
000220 01 b4 8b 3b b9 ec ab 3c ef 9c 98 3c 9b 80 7d bc
       0.0042634015 0.020986902 0.01862952 -0.015472556
000230 38 db 18 bc 2c 54 ef bc 1f 83 a4 3c 22 1d d3 ba
       -0.00932961 -0.029214941 0.020082055 -0.0016106705
000240 e4 9c 04 3c e3 70 bb 3c ea d6 ed bc 14 fe e4 bc
       0.008094046 0.022880977 -0.029033143 -0.027953185
000250 02 37 93 bc fb 5a 92 bc 42 da 77 bc 68 c1 fe bb
       -0.017970566 -0.017865648 -0.01512772 -0.0077745207
000260 3b 04 87 bc f8 50 37 3b ff 1e 03 3d 2e 90 9c 3c
       -0.01648151 0.0027971845 0.032011982 0.019111719
000270 c4 08 6c 3d e7 51 3c 3d 41 fc d3 3c d9 8f 15 3c
       0.057625547 0.045976546 0.02587712 0.009128534
000280 b9 a2 0c 3d 78 92 9e bc 8d ce ef bc 84 13 8e 3b
       0.034334872 -0.019356951 -0.029273296 0.0043358225
000290 1c aa cf 3c fb 7a 35 ba cd 7c 49 bc db 5d a8 bc
       0.02534967 -0.00069229276 -0.012297821 -0.020552566
0002a0 98 0b c3 bc ee a6 a3 3c e9 33 0f bb 36 b2 fb 3c
       -0.02380924 0.01997706 -0.002185101 0.030724626
0002b0 97 a2 8c bc bd 75 cf 3b 82 a0 81 3c 3f 5f af bc
       -0.017167373 0.006331174 0.015823606 -0.021407722
0002c0 c2 96 c3 bb 9a bd 6d bd e7 ff 01 bd e8 2e 1c bd
       -0.0059688995 -0.058042146 -0.031738188 -0.03813067
0002d0 49 e2 23 3d 31 a5 fb bb 2c d9 86 3d 39 a3 4a 3d
       0.040010724 -0.0076796045 0.06584391 0.049472068
0002e0 6e a7 a8 3c 45 67 bf 3d 69 fa 16 3d 0f 5c 61 3d
       0.02058765 0.09345869 0.036859903 0.055019435
0002f0 ba ef 2a 3d e9 24 cb bc 3d 5a 82 bb 63 79 3a 3c
       0.041732527 -0.024797874 -0.0039780424 0.01138148
000300 7b 82 fd bc 48 8a 84 bc 76 de 03 bd ae 5c 66 bc
       -0.030946007 -0.016179219 -0.032194577 -0.0140601825
000310 bf 68 b8 bb a3 64 a6 bc 60 06 ee bc 7f e6 03 bd
       -0.005627721 -0.02031166 -0.029055774 -0.03220224
000320 a2 f4 1b bd f1 0b 79 3b 14 57 5d 3b 17 75 fa bc
       -0.038075097 0.0038001502 0.0033773826 -0.03057341
000330 25 01 34 bd 19 67 d6 bc 2c 46 85 3c bd 0f ba bc
       -0.043946404 -0.026172208 0.016268812 -0.022712583
000340 d0 3b 86 ba c9 b6 0f 3c 15 58 01 3d 10 e5 06 3d
       -0.0010241214 0.008771607 0.031578142 0.032933295
000350 51 e3 a5 3d 8c 56 50 3d 56 3c 3f 3d ac 16 06 3d
       0.08099998 0.050863788 0.0466884 0.032736465
000360 3f 32 61 3c b6 f2 c5 b9 c7 a9 64 3c bb dd 13 3c
       0.01374489 -0.00037755602 0.013956494 0.009025033
000370 f9 85 34 bd 7a 12 9c 3c 9d c5 87 3c 6d 3e 5c bc
       -0.04407308 0.019051779 0.016573722 -0.013442618
000380 cd 77 c9 bc bc 73 cd 3c 95 d9 cd bc ef 98 d6 3c
       -0.024593258 0.0250796 -0.025128165 0.026195971
000390 9b b5 17 bd ba 9a 4a bc b3 9f a2 bc e1 9e 6f bc
       -0.037038427 -0.012365991 -0.019851541 -0.014625282
0003a0 30 30 d0 bc b4 55 ac bb ef 4d 02 3d e8 b8 e2 ba
       -0.025413603 -0.00525924 0.031812605 -0.0017297538
0003b0 ab 22 e2 ba 32 a0 af 3c 04 23 88 3c be 8d 9c ba
       -0.0017252764 0.021438692 0.01661826 -0.0011944098
0003c0 06 7a 09 3d 4e 11 03 3d 81 ea 67 3d 0e e1 92 3d
       0.033563636 0.031998925 0.056620125 0.07171832
0003d0 91 ad 93 3d 3d 60 6a 3c 8f 34 31 3d 64 c8 d4 bb
       0.072108395 0.014305172 0.043263014 -0.006493615
0003e0 40 46 06 bd 74 54 c3 3b 71 fc 30 bb 72 c1 03 bd
       -0.03278184 0.0059609953 -0.0027005936 -0.032166906
0003f0 c2 c3 f9 3c f5 ce f5 bc 46 22 2b bc 00 70 a2 3c
       0.030488852 -0.030005911 -0.010445183 0.019828796

linear.bias f4 [10]
000000 14 12 55 bc 47 82 93 3d 7d 58 0c bc 41 ed 15 bd
       -0.013004798 0.07202583 -0.008566019 -0.036603216
000010 18 63 5a 3d 87 64 67 3d 56 ae 23 3c 67 14 93 3d
       0.05331716 0.056492355 0.009990295 0.07181626
000020 f3 8e b7 bd 49 82 38 3c
       -0.08962812 0.011261531
