02 House Price Prediction - PyTorch/HousePrice.pt (torch, 42231 bytes, 21 tensors)

weight f4 [15, 8]
000000 10 1f e3 bb b0 0d 0c 3c a6 bf 46 bc 6e a0 8f bd
       -0.006931193 0.008548185 -0.0121306535 -0.070130214
000010 98 2c 91 3d d4 71 87 3c 28 14 66 3d ba 70 87 bd
       0.07088584 0.01653377 0.056171566 -0.06613298
000020 82 76 e5 3e 5b af 03 3f 6c e0 c8 bc 8a db 76 3f
       0.44816977 0.51439446 -0.024521075 0.9642874
000030 8b 65 0c 3e bf 29 25 3e 81 57 47 be 36 06 c6 3d
       0.1371061 0.16129206 -0.19466974 0.096691534
000040 a1 80 d2 bf 97 67 9a 3d 4c bd ae 3c 0a e8 c4 bf
       -1.6445504 0.075392894 0.021330498 -1.5383313
000050 c6 c6 54 bd 8c d5 52 bf 83 3c 5e 3e bf 1b 9a 3e
       -0.051947378 -0.82357097 0.21702771 0.30099294
000060 d2 d4 61 bf 9c 5c 32 3d 68 51 c6 bd b7 b0 a3 bf
       -0.88215363 0.04354535 -0.09683496 -1.2788304
000070 6e d1 a7 3d 49 ab 41 be 48 49 e7 bd 4a 5e 61 3f
       0.081942424 -0.18912996 -0.11293274 0.880345
000080 c9 8b f6 bd fa 43 d3 3d 43 98 42 bf 67 56 6a bf
       -0.12038381 0.103157 -0.7601358 -0.9153809
000090 74 10 63 bc d3 30 bb be e2 ad 9d 3f 0a 01 96 bf
       -0.013858903 -0.36560687 1.231869 -1.1719067
0000a0 4e ee f5 3d 4b ba a8 bc 3a ef 59 bd f1 43 1f 3c
       0.12008344 -0.020596644 -0.05320666 0.009720788
0000b0 1f ad aa 3d 0d a5 a1 3d c6 ea e8 bb c0 31 24 bd
       0.083338015 0.07892809 -0.0071080653 -0.040086508
0000c0 b8 24 7d be c5 e4 d7 bf e5 74 52 3e 61 de 0b 40
       -0.24721038 -1.686669 0.20552404 2.185448
0000d0 c7 07 a5 be d4 3b d5 bc a6 26 79 be a7 7f 8d 3e
       -0.32232496 -0.026029505 -0.2433115 0.27636454
0000e0 82 5e 04 bf fe c1 02 be 8c 9b d3 3e f3 31 bb be
       -0.5170671 -0.12769315 0.4132961 -0.36561546
0000f0 db 62 9c be 7b fc d5 bf 1f f5 cc be cf e8 d6 3e
       -0.3054417 -1.6717676 -0.40030763 0.41974494
000100 df 4f ef bc 6a 49 b0 3d 52 92 a9 bc aa aa 28 3e
       -0.02921289 0.086077526 -0.020699654 0.16471353
000110 27 d3 31 bf 77 6b 41 3e 67 43 25 be a8 80 e1 bd
       -0.6946282 0.18888651 -0.16138993 -0.11010867
000120 82 d8 dd be 90 35 69 be 9f 7b 73 be ab 9b f2 3d
       -0.43329245 -0.22774339 -0.23777626 0.118460976
000130 2f 70 2b bf 42 aa 21 3f b8 f1 0d 3f 4c 09 a5 be
       -0.66968054 0.6315042 0.5544696 -0.32233655
000140 a0 a4 86 3f e8 59 ae 3f 95 aa 96 c0 fe 28 11 bf
       1.051899 1.3621187 -4.708323 -0.56703174
000150 b4 c3 5a 3f 13 88 6c 3f b8 a0 80 40 75 dc 92 c0
       0.8545487 0.9239513 4.019619 -4.5894113
000160 66 f8 e0 be db fd 33 be a4 e8 94 3d 8c 3f 2c 3e
       -0.43939513 -0.17577307 0.07270935 0.16821116
000170 1a 1e 2e bf 25 1a c1 be ce 21 b0 bd 8f f6 18 3e
       -0.6801468 -0.3771526 -0.08600198 0.14937805
000180 5e bd 90 bd f8 7c a3 3c e6 58 1c bf b5 44 12 be
       -0.07067369 0.01995705 -0.6107315 -0.14284022
000190 e1 2e 6a bd 22 40 0f bc 48 10 80 3f a1 38 8b bf
       -0.057173613 -0.008743318 1.0004969 -1.0876657
0001a0 08 21 af bd ed f7 15 3e f9 10 f0 bf 03 0f 01 3f
       -0.08551222 0.14645357 -1.875518 0.5041353
0001b0 e2 43 2e 3f 1d 24 13 be 31 bb 82 3f 44 99 78 bf
       0.6807233 -0.14369245 1.0213376 -0.97108865
0001c0 ae c2 db 3e ca 24 0a 3f 0f 18 44 c0 45 3f 0a bf
       0.42921966 0.53962386 -3.0639684 -0.5400279
0001d0 99 4e c9 3e b7 15 8d 3d 25 51 da 3f 19 a6 24 c0
       0.39317778 0.068889074 1.7056013 -2.5726378

weight f4 [5, 3]
000000 3e 04 31 40 fc 39 eb 3f 4c 27 98 3f 3b b4 63 be
       2.765884 1.837707 1.1886992 -0.22236721
000010 fe c0 17 bf c0 bf 08 3d 8c a3 59 3d 14 3f a6 3e
       -0.5927886 0.033385992 0.053134486 0.3247
000020 ac b3 20 3f d4 52 56 bc fa 4f b0 ba 91 3c 20 3d
       0.6277416 -0.013081271 -0.0013451569 0.03912026
000030 e1 59 39 3f 00 c9 6e 3e 7e 75 61 bf
       0.7240277 0.23318863 -0.88069904

weight f4 [2, 1]
000000 b5 c0 2b 40 c0 0c 85 3c
       2.683637 0.016241431

weight f4 [4, 2]
000000 8f e8 10 3e 10 7d 17 be 03 94 31 3e 36 e4 39 be
       0.14151214 -0.14793801 0.17341618 -0.18153462
000010 f1 29 a5 bd 20 08 49 40 71 89 13 bf 5d 3c 02 3f
       -0.0806464 3.141121 -0.57631594 0.5087336

weight f4 [5]
000000 6e 9c 1d 3f b9 35 8e 3e 87 be a1 3f fc 66 74 3f
       0.6156682 0.27775362 1.2636269 0.9546964
000010 b1 ff fe 3f
       1.9921781

bias f4 [5]
000000 0b c9 78 be 90 2e 8b bf 1c 47 a1 bf 5e f6 80 bf
       -0.24295442 -1.0873585 -1.2599826 -1.0075185
000010 ee 1c f8 3f
       1.9383829

running_mean f4 [5]
000000 65 29 8c 42 90 e7 1b 46 c6 c2 90 44 25 cb ab 43
       70.08085 9977.891 1158.0867 343.58707
000010 5c 82 49 42
       50.377304

running_var f4 [5]
000000 14 f6 10 44 09 52 77 4c e7 28 0f 48 95 71 38 48
       579.845 6.4833572e+07 146595.61 188870.33
000010 9a 63 7a 44
       1001.5563

weight f4 [100, 19]
000000 5d 46 55 3f b5 e7 50 3f 30 e1 dc be 31 0f eb bc
       0.8331049 0.81603557 -0.43140554 -0.028693767
000010 ab 38 c9 3e 4b 83 cb 3e df ff 49 3f ac 63 c1 be
       0.39301047 0.39748606 0.78906053 -0.37771356
000020 6b 76 c0 3f 39 33 a3 3f 24 89 a7 bf aa a6 71 3f
       1.5036138 1.2750007 -1.3088727 0.94394934
000030 7a 1a f8 be ac 1a 61 3f 4f 73 78 3d 14 5f 61 c0
       -0.484577 0.87931323 0.06065684 -3.521428
000040 54 14 97 bf 68 e1 de bf 88 34 29 3f 86 1e 81 3f
       -1.1803079 -1.7412539 0.6609578 1.008744
000050 fa 85 40 3f 3d 4f 07 bf 5d e6 a1 be 62 ad bf 3e
       0.7520443 -0.52855283 -0.31621066 0.37436968
000060 7d 58 08 3f e9 6d 96 3e d3 fe 07 bf 06 6b 78 3f
       0.5326002 0.2938073 -0.53123206 0.97038305
000070 aa 0d b3 3f ff 22 2a bf bc 49 03 3f 15 ef 40 bf
       1.3988545 -0.6645965 0.51284385 -0.7536481
000080 8d 5f 39 3f d7 22 13 3f 11 56 58 c0 e0 95 6a bf
       0.72411424 0.57475036 -3.380253 -0.9163494
000090 3c da e0 bf 59 ea 41 3f 16 c0 e8 3e 0d 05 97 3e
       -1.75666 0.7574821 0.4545905 0.2949604
0000a0 c4 05 fc be 4e 3c 3c 3f 5a 52 20 3f 95 89 64 3f
       -0.4922315 0.7352952 0.6262566 0.89272434
0000b0 a9 aa 07 3d 7b 7d a9 3d 81 59 c1 3f b3 b4 cc 3f
       0.03312174 0.082758866 1.510544 1.5992645
0000c0 c8 91 8c bf c7 a1 74 be 1a 75 76 be 6b f8 b0 be
       -1.0981989 -0.23889838 -0.24068108 -0.34564528
0000d0 6a d4 da be 13 c7 3e 3e de ba fd bf fc 65 29 c0
       -0.42740184 0.18630628 -1.9822652 -2.6468496
0000e0 87 e6 d8 3e b2 68 20 be 2b b8 ca 3d ad 56 b5 3c
       0.42363378 -0.15664938 0.098984085 0.022136057
0000f0 cb 3c 9d 3d 46 f7 eb 3e 98 51 52 be 17 1c 04 be
       0.07677611 0.46087092 -0.20538938 -0.1290134
000100 13 ea 0d 3d a9 0a fa 3c 51 88 3a 3f e6 96 e8 bd
       0.03464706 0.030522661 0.7286425 -0.113569066
000110 1c e5 f1 3e 11 1e e1 3c 04 8c 61 3d 75 ec 8d be
       0.4724511 0.027480157 0.05506517 -0.27719465
000120 c1 7a 48 c0 0d 99 b9 bf 6a 47 00 c0 38 99 4a 3f
       -3.1324923 -1.4499832 -2.0043588 0.79140043
000130 80 93 e8 3e f4 d9 8c 3f 47 71 02 bf 2a 34 54 bd
       0.45425034 1.1004014 -0.509541 -0.05180756
000140 e2 24 8c 3e 66 8a 44 3f 42 26 f4 3e 57 8f b3 3c
       0.2737189 0.7677368 0.47685438 0.021918936
000150 ac 5a 3e 3f 1e 48 7f 3f 0b a7 01 be a7 67 c1 3d
       0.74357104 0.9971942 -0.12661378 0.09443598
000160 08 1f bb be fd db 22 3f fd 48 4f 3d e5 48 6d c0
       -0.36547112 0.63616925 0.050606716 -3.7075741
000170 87 d0 8e bf 6d 41 c7 bf 5c 1e 67 3f 14 36 86 3d
       -1.1157387 -1.5566841 0.902807 0.06553283
000180 9b f9 38 be 26 6e 26 3f b1 f1 e6 bd c6 64 44 bf
       -0.18063967 0.65011823 -0.11276568 -0.7671627
000190 03 d2 3b bf 05 80 ee be c1 1e 8a 3f d2 be 5b 3f
       -0.7336733 -0.46582046 1.0790635 0.85838044
0001a0 eb 63 11 3f 07 4d 9c bf 26 c1 c6 bd 45 2b fe bc
       0.5679309 -1.2211007 -0.09704809 -0.031026492
0001b0 15 e8 e6 3d 95 73 b2 bf b5 51 ec 3e d5 cf 11 3f
       0.11274735 -1.3941523 0.46156088 0.5695775
0001c0 ac e5 8a bc 9e 0b a8 bf b3 a8 89 be f7 07 d6 bd
       -0.01695522 -1.3128545 -0.2688652 -0.10450738
0001d0 28 36 f9 3c e6 cc af 3d 86 34 9b 3b ab 22 1a c0
       0.030421332 0.08584003 0.004736486 -2.408366
0001e0 ac a2 2c bd b0 6b 16 3d 3c d5 d7 3c 43 b0 bb 3e
       -0.042147323 0.036723793 0.026346795 0.36657915
0001f0 16 6e 09 3f 0f 23 0c 3f 47 03 39 3d d8 b0 be be
       0.536836 0.54740995 0.04516914 -0.37244296
000200 9b 7e e9 3d 08 f7 12 40 53 06 23 c0 fe c7 84 bf
       0.11401101 2.2963276 -2.547261 -1.0373533
000210 82 7f d8 be a1 a9 02 3f 7a d4 58 3f 5d bf e8 bd
       -0.4228478 0.51040083 0.84699214 -0.11364625
000220 ae 3f 08 3f 26 a3 97 3e 1b eb 2b 3f 2a ce af bd
       0.5322217 0.2961666 0.6715562 -0.085842445
000230 27 25 98 bd 36 87 21 3e fa 83 be 3f 4e 6d 90 3b
       -0.07428961 0.15774235 1.4884026 0.0044075614
000240 3b 97 1d 3e 57 42 b7 bd a5 6b bd 3c d8 85 59 3f
       0.15389721 -0.089482 0.023122618 0.84969854
000250 e5 c8 61 bf 07 48 7a 3f 12 76 2f 3f 69 fe 6b c0
       -0.88197166 0.97766155 0.68539536 -3.687403
000260 67 44 b9 3f 67 f6 62 3f 5a 49 18 bf 37 64 20 3e
       1.4474 0.8865723 -0.59486926 0.15663229
000270 21 81 c2 3e 04 37 61 3f 20 2e 1b 3f e5 c0 19 bf
       0.37989143 0.8797457 0.60617256 -0.6005996
000280 15 af 29 3f e4 f8 9e bc d8 58 7b bf ea 6d 5b 3e
       0.6628278 -0.01940579 -0.9818244 0.21428648
000290 bd f7 b9 be 48 17 af 3e 79 94 e3 3e 3a 8a 3f c0
       -0.36321822 0.3419745 0.44449213 -2.9928117
0002a0 06 10 91 bf 6e 48 cf bf e9 a9 5e 3f 13 6f a0 3e
       -1.1333015 -1.6193979 0.8697801 0.31334743
0002b0 c9 79 6a 3f e8 56 4f 3f b8 50 00 40 10 88 90 3e
       0.9159208 0.80991983 2.0049267 0.28228807
0002c0 d2 ba ba 3d 3a 10 27 bf d5 92 04 3f 6a ac aa be
       0.091176644 -0.65259135 0.5178655 -0.33334666
0002d0 19 28 6f 3d be 67 da bd 26 ed 7b be cc de b6 be
       0.05838785 -0.106643185 -0.24602184 -0.35716856
0002e0 c7 25 5c 3e b6 ff 4d be ae d5 80 3f 39 ac 27 3f
       0.21498786 -0.20117077 1.006521 0.65497166
0002f0 26 65 9b 3e 04 a3 9c bf e3 89 96 3f 29 91 53 3f
       0.30350608 -1.2237248 1.176083 0.8264337
000300 51 a4 a5 be 0d 68 76 3f 4c 2f c9 3e 5c 82 ba 3f
       -0.32351926 0.9625252 0.39293897 1.4571033
000310 d9 79 fc 3d e8 7d 9c bd 09 10 28 3f 69 e6 a5 3f
       0.12327928 -0.07641202 0.6564947 1.2960941
000320 a0 b8 21 bf 43 70 ae 3f 4b 14 31 bf 33 4d 97 3e
       -0.6317234 1.362801 -0.6917159 0.29551086
000330 a3 f4 33 40 e1 5f c0 bf 90 85 b4 3e 8c 69 9a bd
       2.8118064 -1.502926 0.3525815 -0.07539663
000340 3b 11 58 c0 b8 af be 39 9c b2 a6 bf f6 86 c3 3f
       -3.3760517 0.00036370545 -1.3023257 1.5275562
000350 c0 2f fc 3d 7c c6 92 3f ed 60 9c 3e 88 0b ac bf
       0.12313795 1.1466823 0.30542699 -1.3441019
000360 e0 25 b4 3f 69 8d 36 bf d3 73 5c be 6f df 23 3f
       1.4074059 -0.71309525 -0.21528558 0.6401281
000370 17 63 68 3e f0 a1 e6 be 9c d8 dd 3e bb 32 0e bf
       0.2269405 -0.45045424 0.43329322 -0.5554616
000380 d1 49 18 3e b3 9d 2c 3f 52 4c 43 3f dc c5 9a bf
       0.14871909 0.6742813 0.7628833 -1.2091632
000390 3b 32 9f 3e 74 f2 16 3e 40 63 54 bd 9e 6f 9d 3e
       0.3109301 0.14740926 -0.051852465 0.3074922
0003a0 9e b8 14 3f 60 cd f0 bd 90 e1 0d be bf f2 99 bd
       0.58094203 -0.11757922 -0.13855577 -0.07517003
0003b0 20 19 ab 3e 7e 8d 31 3f f4 f6 17 bf ac db a0 3f
       0.33417606 0.69356525 -0.59361196 1.2567039
0003c0 5c ba 84 be ab 47 10 3f 9a a2 86 3e 37 a7 80 c0
       -0.2592343 0.56359357 0.2629593 -4.020412
0003d0 a5 c5 b7 bf b7 53 cf bf 60 0b 42 3f c9 76 cf 3d
       -1.4357191 -1.6197423 0.75798607 0.10130078
0003e0 80 96 08 3f 14 5c 46 be d4 dc e7 bc 2b e7 66 3e
       0.53354645 -0.19371063 -0.028303541 0.22549121
0003f0 6b 10 c7 bd 3c 8f ff 3c c3 8f 40 bd d5 1b 82 3d
       -0.09719928 0.03119623 -0.0470121 0.06352965

bias f4 [100]
000000 62 91 85 40 56 df 5f 40 c7 fe fe 3d af c5 9f 40
       4.173997 3.4980063 0.12450939 4.9928813
000010 b4 8b 84 40 7d c2 39 c0 f4 8f f4 bf 31 eb ac 3e
       4.1420536 -2.9024956 -1.9106431 0.33773187
000020 c9 50 8b 40 3d 44 32 40 37 27 ef 3e c5 d5 48 40
       4.3536115 2.785415 0.46709606 3.1380475
000030 90 80 9b 40 f0 18 91 be 30 f5 b7 40 38 88 c9 40
       4.8594437 -0.28339338 5.74868 6.2978783
000040 45 93 0e c0 a2 81 2a c0 45 91 d6 bf 9e 1e 09 c0
       -2.2277386 -2.6641622 -1.6763083 -2.1424937
000050 d7 c8 51 40 5c e1 f7 bf 0d 27 5d c0 2d 43 bb bf
       3.2778833 -1.9365649 -3.4555085 -1.4629875
000060 cc 03 ce bf 1a 4f c8 bf b5 0a ef bf f8 16 9d bf
       -1.6094909 -1.564914 -1.8675143 -1.2272635
000070 c0 39 a0 3e 32 95 76 c0 58 dc 23 3f 62 f1 fe 3e
       0.3129406 -3.8528562 0.6400809 0.49793535
000080 8b 35 87 bf 9d 4e 8d 40 06 0d 44 40 05 4d 2a c0
       -1.0563215 4.4158463 3.063295 -2.660951
000090 5c 37 e1 bf b8 43 e2 bd aa 09 fc bf cf 20 0f be
       -1.7595019 -0.110480726 -1.9690449 -0.13977359
0000a0 e7 9f 41 40 6d ee 84 40 49 51 99 bf bc d5 95 40
       3.0253847 4.1541047 -1.1977931 4.6823406
0000b0 a4 0e 6f bf 7b d4 3b bf ad dc 87 40 70 47 82 40
       -0.93381715 -0.73371094 4.245688 4.0712204
0000c0 87 5a 54 bf 71 94 5b be 21 a5 4a 3f c5 ca 9b 3e
       -0.82950634 -0.21443345 0.79158217 0.30428138
0000d0 c7 72 93 40 56 ed 85 40 e8 4f 84 40 e6 62 01 3f
       4.607761 4.1852217 4.134754 0.5054153
0000e0 b4 0f 9e c0 f8 23 1d 40 c1 db 26 bf 77 7e 24 be
       -4.939417 2.4553204 -0.6517907 -0.16063868
0000f0 6b 87 92 40 3e 70 49 40 95 fb 8d bf aa ff cd bf
       4.5790305 3.1474757 -1.1092402 -1.6093647
000100 3b 22 7e c0 7a 3a 4a 3f 7d 83 25 3d d1 32 f4 3f
       -3.9708393 0.7899548 0.0404086 1.9078008
000110 12 54 2b 40 eb 96 8e 3e f6 72 48 40 28 c7 6a 40
       2.6770062 0.27849516 3.1320167 3.6684055
000120 29 18 01 c0 4a 90 eb be 3e 6e 05 c0 29 91 44 40
       -2.0170996 -0.4600852 -2.0848536 3.0713599
000130 69 11 a4 40 ec 24 93 3f ce 9c 11 bd 51 5d c6 bf
       5.1271253 1.1495643 -0.03554993 -1.5497228
000140 00 10 e5 bf 27 76 03 3e 04 87 c2 bf ca 0c d0 be
       -1.7895508 0.1283804 -1.5197453 -0.40634757
000150 0e e2 22 bf dd 26 a0 3e e7 2a 2a 40 82 fb 93 40
       -0.6362618 0.3127965 2.6588686 4.6244516
000160 78 3c bf bf 1d 74 7c 3d 62 8e 9f 40 d2 06 05 bd
       -1.4940329 0.06163417 4.9861307 -0.032477207
000170 b0 f0 8c c0 2e 2f 07 c0 d2 aa bd 40 22 8d 16 bd
       -4.404381 -2.1122546 5.927102 -0.03675569
000180 26 ad 82 40 8b 57 5f c0 65 4c 08 c0 e4 35 4a be
       4.0836363 -3.4897182 -2.1296628 -0.1974712

weight f4 [100]
000000 ee f5 ac be 11 42 9d 3e 11 72 7a 3e bd e9 94 3e
       -0.3378138 0.30714467 0.24457575 0.29084578
000010 ad 81 7e 3e da fd ca 3e b0 cb 0e 3f 12 14 94 3e
       0.24854155 0.39646798 0.5577955 0.28921562
000020 b9 04 4d 3e ee c6 81 3e b6 90 78 be 83 a9 49 be
       0.20021333 0.25347084 -0.24273953 -0.1969357
000030 e8 8e 99 3e ce 41 88 3e 62 12 98 3e 60 86 8e 3e
       0.2999184 0.26612705 0.29701525 0.27836895
000040 ca 88 4c be 83 28 70 3e 2a b5 67 3f 98 93 49 3f
       -0.19974056 0.23452954 0.9051081 0.78740835
000050 7b 6e 46 3e 71 4e 9f 3f cd d7 00 3f bb 73 35 3f
       0.19378082 1.2445813 0.50329286 0.70879716
000060 9b 49 ed 3e d7 13 01 3f 0d ea f4 3e 33 30 23 3f
       0.4634522 0.504209 0.47834817 0.6374542
000070 d9 30 30 be f6 04 d6 3e 85 7b 8a 3e cc b7 bc 3e
       -0.17206134 0.4180066 0.27047363 0.36858976
000080 c4 48 b4 3e b6 1d 9b 3e 20 47 6a 3e e0 85 40 3f
       0.35211766 0.30296105 0.22878695 0.7520428
000090 a5 fc ba 3f 1e 2e c6 3e 1b 11 25 3f 63 a2 a4 3e
       1.4608351 0.3870706 0.64479226 0.3215514
0000a0 52 cb 7e 3e 4e 13 96 3e 37 99 e6 3e 8e 6b 6e be
       0.24882248 0.29311603 0.4503877 -0.23283216
0000b0 9a 36 d0 3e 13 2b e8 3e 89 4e 9f 3e db 3d 9f 3e
       0.40666658 0.45345363 0.31114605 0.3110188
0000c0 ef f1 46 3e 76 36 80 3e 93 b7 81 3e ed 02 94 3e
       0.19428228 0.2504155 0.2533537 0.28908482
0000d0 e1 e8 40 be a7 b8 ac 3e ff 3e 98 3e 63 3a 78 3e
       -0.18838836 0.3373463 0.29735562 0.24241023
0000e0 cc 1b 8e 3e 61 0b 99 3e b8 f2 a2 3e 28 2e 26 3f
       0.27755582 0.29891494 0.31825805 0.6491418
0000f0 40 30 8a be 78 2b 70 3e 11 c0 83 3f 19 6d 35 3f
       -0.26989937 0.23454082 1.0292989 0.70869595
000100 e2 0f c2 3e 9d 29 9c 3e c6 51 26 3e cf f8 30 3e
       0.37902743 0.30500498 0.16242132 0.17282413
000110 97 90 7b 3e 80 50 99 3e 86 83 32 3e 0f 2e 6b 3e
       0.24566875 0.2994423 0.17432985 0.22966789
000120 0e 98 a3 3e 32 61 8b 3e 19 44 9d 3f 64 94 5d 3e
       0.31951946 0.27222592 1.2286407 0.21638638
000130 80 50 99 3e 0b 98 70 be e5 fb 19 3f 99 c7 bd 3f
       0.2994423 -0.234955 0.60149986 1.4826537
000140 01 26 82 3f c7 e5 92 3e 92 89 82 3f 97 c9 1c 3f
       1.0167848 0.2869093 1.0198233 0.612451
000150 7e 0d d9 3e dd 6b 70 3e a3 55 79 3e 68 db b3 3e
       0.42393106 0.23478647 0.24349074 0.3512833
000160 9a 97 17 3f d8 47 69 3e 50 b4 8e 3e 83 8a b6 3e
       0.592157 0.22781312 0.27871943 0.3565255
000170 b1 1e a6 3e 79 3f 17 3f 94 40 65 3e 25 ed 0c 3f
       0.3244529 0.59081227 0.22387916 0.55049354
000180 fc 4f 91 3e fb 69 d3 3e 73 75 72 3e b0 57 81 3e
       0.28381336 0.41291794 0.23677616 0.25262213

bias f4 [100]
000000 ef ec cb bd e8 9a 55 3e 9b 37 54 3e 0c 7f 80 bd
       -0.09957301 0.20859873 0.20724337 -0.06274232
000010 fe ec 86 3e c5 60 da bc 96 a8 c7 3c db cc 26 3d
       0.26352686 -0.026657471 0.02437238 0.04072271
000020 0f 58 32 3e 09 81 18 3c fd 41 f9 3c 70 2c 09 3e
       0.17416404 0.009308108 0.030426973 0.13395858
000030 e6 af 44 3d a7 a9 00 be 2b 9a 77 3e d9 22 b9 bd
       0.048019312 -0.12564717 0.24179904 -0.0903985
000040 2d dd 91 bb 39 58 a6 3c 1b 43 10 3f 9f ad 0f 3e
       -0.004451415 0.02030574 0.56352395 0.14031075
000050 98 23 0f be a4 20 09 bc 97 d9 d7 bb f4 5e 23 3e
       -0.13978422 -0.008369599 -0.006587218 0.1595419
000060 b3 dd d8 3e c2 d8 05 be 3d 49 22 bd db b1 4a 3d
       0.42356643 -0.13070968 -0.039620627 0.049486022
000070 95 73 8b 3d 8b 46 a9 3d b5 20 87 bd ed a0 7d 3e
       0.06809155 0.08265408 -0.06598035 0.2476842
000080 02 0d 65 3e 20 63 03 be 9d 1a 9b bd 70 5b 66 3e
       0.22368243 -0.12830782 -0.075734355 0.22495818
000090 6c b2 3a 3c 9d dd 8b 3e b0 1e b2 bd 1d 1b 39 3e
       0.011395078 0.27317515 -0.086972594 0.18076749
0000a0 de db 12 bd 9a f3 19 3e 59 c3 88 3e 84 4c a8 bd
       -0.035854213 0.15034333 0.26711538 -0.08217719
0000b0 9c 8f 39 3c 0c 52 aa 3e e5 5b 5b 3e 77 b6 39 3e
       0.011325743 0.33265722 0.21421774 0.18136011
0000c0 cb 50 b8 bd 2f 9d 60 3e 7e 34 c2 bb 06 cb 69 3d
       -0.08999785 0.21934961 -0.0059266677 0.057078384
0000d0 37 0c 03 be 24 5f 27 3e 7a bb 25 3e 96 83 0b bd
       -0.12797628 0.16344887 0.16184798 -0.034061037
0000e0 03 2c 21 bd cc 33 71 bc 73 62 87 3e 3b af df 3d
       -0.039348613 -0.014721822 0.26442298 0.109220944
0000f0 23 8b c6 3d 90 66 06 be f1 92 d8 bc ab 67 42 bd
       0.09694507 -0.13125062 -0.026437255 -0.047462147
000100 f6 79 9f 3b 61 b8 80 3d 1e 7e 23 bd 84 42 6f bd
       0.004866834 0.062851675 -0.039915197 -0.058413044
000110 50 96 b3 3c 14 df fd 3d 45 68 1a be 74 e5 0d 3e
       0.02192226 0.123960644 -0.15078838 0.1385706
000120 02 50 38 be 49 6e 03 3e ea 4d 86 bb 93 5f 13 be
       -0.1799927 0.12835039 -0.0040986435 -0.14391927
000130 4f de 6a 3d 9e 22 2c 3c c4 c8 f3 3d 34 83 6b 3d
       0.057340916 0.0105063 0.119035274 0.057498172
000140 d0 00 44 bd 34 e5 62 bd 40 ba 9c bb 54 ee 77 3d
       -0.047852337 -0.055394366 -0.004782945 0.06053002
000150 fb 0b d2 3e b9 24 a0 bb ca 76 1a bd 82 36 32 3e
       0.41024765 -0.00488719 -0.037710942 0.17403606
000160 15 ac 43 3e 63 3d 5d 3e 07 72 44 3e 66 33 1e 3e
       0.19108613 0.21605448 0.19184123 0.15449294
000170 c5 2a 16 3c 52 8a 48 3c 5a 10 36 3d d9 94 8b 3e
       0.0091654705 0.012240009 0.044449188 0.27262
000180 07 91 2f 3e 41 a9 b1 3d 43 8e 92 3c aa 26 7b bd
       0.17145167 0.08674861 0.017890101 -0.06131617

running_mean f4 [100]
000000 d1 26 60 41 4f 9d 4b 41 08 46 d6 40 4d 3e 5e 41
       14.009477 12.725905 6.6960487 13.89021
000010 da 03 5c 41 e5 c3 d7 3b 83 18 0d 3f ec d0 97 3e
       13.75094 0.0065846317 0.55115527 0.29651582
000020 ec 94 56 41 d4 73 ee 3e 0e b8 5d 3f b6 ec 5d 3f
       13.411358 0.46572745 0.8660897 0.8668932
000030 a2 02 69 41 d8 0c 30 41 16 7a 67 41 be c5 60 41
       14.563143 11.003136 14.467306 14.048277
000040 cd 7b 92 3c 8a ed 26 3d b0 72 e6 3f 04 00 00 00
       0.017881298 0.04075388 1.800375 6e-45
000050 e1 d1 32 3f b2 43 9e 3a f6 89 7f 3c 65 dd 98 3e
       0.698515 0.0012074618 0.015596857 0.2985641
000060 81 bf b5 40 04 00 00 00 04 00 00 00 e5 95 0f 3c
       5.679627 6e-45 6e-45 0.008763765
000070 69 00 38 3e 06 03 52 3e 0c da 40 41 dd a9 ae 40
       0.17968906 0.20508966 12.053234 5.4582353
000080 5a 26 99 40 6e 63 52 41 4c 3e 05 3f 1b b6 a3 3e
       4.7859316 13.149275 0.5204818 0.31974873
000090 48 bd 48 3b 1a 3e c4 40 04 00 00 00 4e 94 2e 41
       0.0030630399 6.1325808 6e-45 10.911207
0000a0 78 45 11 3f 02 e7 54 41 04 00 00 00 b4 76 63 41
       0.56746626 13.306398 6e-45 14.21648
0000b0 f4 16 00 3d 47 7c aa 40 8f 22 56 41 c1 58 55 41
       0.03127189 5.3276706 13.383437 13.334168
0000c0 9c a9 28 41 16 99 2e 41 e4 7f 12 3f a6 f8 3f 3e
       10.541409 10.9123745 0.57226396 0.18747196
0000d0 59 9c 67 41 2c 30 5e 41 8c f9 5a 41 a9 76 91 3e
       14.475671 13.886761 13.685925 0.28410843
0000e0 32 2b 2a 3d f2 ea 84 3e c0 1b ab 40 19 8b a2 3d
       0.0415451 0.259605 5.3471375 0.07936687
0000f0 26 7e 5c 41 7f 51 82 3f 04 00 00 00 04 00 00 00
       13.780798 1.0181121 6e-45 6e-45
000100 19 92 36 3c 5e 46 54 3e ef ce a0 3e ef f2 f4 3e
       0.011143231 0.20729968 0.31407878 0.47841594
000110 14 18 9e 3e bc 9a 34 41 bb 3e 3a 3f 0c d9 57 41
       0.30877745 11.287777 0.7275197 13.49049
000120 04 00 00 00 ef 4d 31 41 0c 85 09 3b 83 a4 31 3f
       6e-45 11.081527 0.0020983843 0.6939165
000130 74 ac 51 41 c4 15 03 41 0f 2f fd 3d 33 18 19 3c
       13.104603 8.192814 0.12362491 0.009344148
000140 04 00 00 00 92 d2 0b 3e 04 00 00 00 dd 29 a1 3d
       6e-45 0.13654545 6e-45 0.07869313
000150 a0 e6 a8 40 7b 56 b4 3e 4d 6a d5 3e 44 cb 62 41
       5.2781525 0.3522223 0.41682664 14.174625
000160 c7 22 ad 3f 37 30 37 41 9e 12 6b 41 28 20 36 41
       1.3526238 11.449271 14.692045 11.382851
000170 5c 11 ca 3c 78 48 d7 3c f8 07 5b 41 4e 79 28 40
       0.02466648 0.026279673 13.6894455 2.6324039
000180 e0 0c 56 41 bf d4 1a 3c 04 00 00 00 58 73 30 41
       13.378143 0.009450137 6e-45 11.02816

running_var f4 [100]
000000 8d 08 a6 41 9e af 87 41 93 2f 7c 41 cf 3c 47 41
       20.754175 16.96075 15.761615 12.452346
000010 ea 47 7f 41 f4 36 2d 3c cb 71 81 3f 65 cf 49 3f
       15.955057 0.010572184 1.0112852 0.78832084
000020 7f 02 9e 41 ef 67 41 3f e7 3a 38 40 9b 62 c9 3f
       19.751219 0.75549215 2.878595 1.5733217
000030 63 c8 46 41 9e 2d 1e 41 b8 23 93 41 5a 3e 28 41
       12.423923 9.886137 18.39244 10.515223
000040 ac 3c dc 3c 22 a2 9a 3d b1 cf 9e 40 04 00 00 00
       0.0268844 0.07550456 4.962853 6e-45
000050 8d 5e 9a 3f a4 9c da 3a 82 65 f4 3c 45 57 6e 3f
       1.2060105 0.0016678763 0.029833559 0.9310191
000060 01 d7 94 41 04 00 00 00 04 00 00 00 61 8c 94 3c
       18.604982 6e-45 6e-45 0.018133344
000070 45 38 26 3f e6 02 b0 3e 2d 20 18 41 9a 17 3d 41
       0.6492961 0.3437721 9.507855 11.818262
000080 c3 ba 3a 41 ec 55 62 41 b2 27 4e 3f a0 52 ae 3f
       11.670596 14.145977 0.8052932 1.3618965
000090 97 d8 f3 3b b2 d9 66 41 04 00 00 00 48 32 0f 41
       0.007441591 14.428148 6e-45 8.949776
0000a0 30 90 5f 3f 4f 0e 5e 41 04 00 00 00 d0 f5 73 41
       0.8732939 13.878493 6e-45 15.247513
0000b0 4d e4 25 3e 95 f8 81 41 86 b4 31 41 7e 3a 93 41
       0.16200371 16.246378 11.106573 18.40356
0000c0 22 7b 40 41 fb 8b 18 41 42 67 b3 3f 95 df 42 3f
       12.030062 9.534175 1.4015887 0.7612241
0000d0 39 28 54 41 f6 13 82 41 13 aa 2e 41 95 eb 3b 3f
       13.25982 16.259747 10.916522 0.73406345
0000e0 18 af 2d 3d 4a 30 0a 3f 41 f2 70 41 b2 a1 bc 3e
       0.04240331 0.53979933 15.059144 0.36842114
0000f0 5c 7d 81 41 91 57 f4 3f 04 00 00 00 04 00 00 00
       16.18621 1.9089223 6e-45 6e-45
000100 5e fb ca 3c 08 cc 53 3f 31 3a 3f 3f 44 d9 8d 3f
       0.024778064 0.827332 0.7469817 1.1081929
000110 5f 03 6c 3f e7 4e d2 40 0f a6 8c 3f b1 73 5a 41
       0.92192644 6.5721316 1.0988177 13.653245
000120 04 00 00 00 a5 b1 f3 40 42 94 54 3b f0 fc a3 3f
       6e-45 7.615435 0.0032437001 1.2811565
000130 26 21 62 41 4f 8a 65 41 b8 c2 3f 3f 5b 69 f0 3c
       14.133093 14.346267 0.7490649 0.029347112
000140 04 00 00 00 e3 6b ea 3e 04 00 00 00 38 1f b0 3e
       6e-45 0.45785436 6e-45 0.34398818
000150 4b 54 71 41 3e 4f 81 3f 06 af 53 3f 9c 2b 0d 41
       15.083079 1.0102308 0.8268894 8.823147
000160 b9 9f bb 40 d1 10 5c 41 eb 73 41 41 c3 13 36 41
       5.8632474 13.754106 12.0908 11.379825
000170 a5 b6 df 3c 8a e1 00 3e cc 6c 2e 41 28 e0 12 41
       0.027308771 0.12586036 10.901562 9.179726
000180 2a 13 88 41 8a f7 9b 3c 04 00 00 00 bd 59 23 41
       17.009357 0.019038934 6e-45 10.209409

weight f4 [50, 100]
000000 5e e3 60 be 76 9d ca 3e 1a 1e cb 3e 25 ac 05 3e
       -0.21961734 0.39573258 0.39671403 0.13053949
000010 58 8a cd 3e 67 89 fe be f9 ed 4a 3e cb d5 08 bf
       0.4014461 -0.49714205 0.19817342 -0.5345122
000020 41 dc ca be 90 3a 6e be ee a6 70 3f a8 95 0d be
       -0.39621165 -0.23264527 0.94004714 -0.1382662
000030 e9 0b 00 be cc a7 01 3f 52 a4 1e 3e e8 b8 a9 3d
       -0.12504543 0.5064666 0.1549237 0.08287221
000040 df 80 03 3e 34 26 3d 3e 69 4e 82 3b bb cd e0 be
       0.12842129 0.18471605 0.0039766324 -0.4390696
000050 b4 ab 88 3e 19 7a ff be d5 b7 61 3f 4a c6 de 3e
       0.266935 -0.4989784 0.8817113 0.43510658
000060 f8 c3 ad 3e 41 37 4e 3f a3 d5 1d 3f 50 0f 36 bf
       0.33938575 0.8055306 0.6165411 -0.71117115
000070 c2 7e 91 be d5 a5 97 3e 2c 63 b4 3e 86 e3 08 be
       -0.2841702 0.29618707 0.35231912 -0.13368043
000080 85 13 d4 3e fb 7e ed be 10 4d 9c 3e be dd 00 be
       0.41421142 -0.4638594 0.30527544 -0.12584588
000090 66 a6 93 be 1c 42 3f 3e 9d 91 b3 3e 0e 5a 94 3e
       -0.2883789 0.18677562 0.35072032 0.28974956
0000a0 c7 7a c7 bc fd 6c 38 3f f6 f1 27 bf 9d 39 b7 be
       -0.024350537 0.720413 -0.6560358 -0.35786143
0000b0 24 66 6a be 58 b0 bd 3e 33 a7 8e be 04 25 76 3e
       -0.22890526 0.37048602 -0.27861938 0.24037558
0000c0 32 4e 4c be 70 3b 68 be 46 e5 1c bf 12 cf 04 c0
       -0.19951704 -0.22678924 -0.61287344 -2.0751386
0000d0 6c c7 10 be 26 63 bf be c6 cc 7d 3e 02 5d 2d bf
       -0.14138573 -0.37380332 0.24785146 -0.67720044
0000e0 0d 40 c7 3e 0a 05 b4 be 2f 80 56 3e 8c 9f 30 c0
       0.38916054 -0.35160094 0.20947336 -2.759738
0000f0 c7 db 2e bd 91 ea c4 3e ca 22 88 3e 4a a6 1a bf
       -0.042690065 0.3846021 0.26589042 -0.60409987
000100 7f 50 95 3e a4 f8 a1 bf d9 31 e6 be c4 e9 cd be
       0.29162976 -1.2654004 -0.44959906 -0.40217412
000110 fe 50 cc be 49 3a fe bd a3 98 1b 3e c4 95 da bd
       -0.39905542 -0.12413461 0.15194945 -0.10673097
000120 9f 7c 00 3f 87 e0 7f 3e 51 6d d5 3d 27 21 d3 3d
       0.50190157 0.24987994 0.10421241 0.10309058
000130 de b7 41 3f 3c 37 2e bf ef f6 0e c0 4f 62 63 be
       0.75671184 -0.6805303 -2.2338216 -0.2220547
000140 7b f2 47 3f 3c 85 3b bc c6 ee 2d 3e 5c e7 36 c0
       0.7810437 -0.01144534 0.16985616 -2.857871
000150 13 a2 31 be 99 56 6b 3d 9b 58 34 bf df 79 1c 3e
       -0.17346983 0.057455633 -0.704477 0.15280865
000160 e2 c5 dc 3e f2 c0 1c be ce a0 1b 3e b8 ed 55 bb
       0.43119723 -0.15307978 0.15198061 -0.0032642912
000170 2e 36 4e bf bd 71 35 bf 48 80 70 3e b7 bf ea be
       -0.8055142 -0.70876676 0.23486435 -0.45849392
000180 17 d1 1c be 9d 18 fc 3d 44 1c 22 3f 90 9d cb bd
       -0.15314136 0.12309382 0.6332438 -0.09942162
000190 8e a7 f5 bc 15 e4 79 bf 7b 0d 73 bf 40 6a 0c 3f
       -0.029987123 -0.9761365 -0.94942445 0.54849625
0001a0 b5 1b d6 be 89 34 46 bf 33 af 4f bf bd 26 1c 3e
       -0.41818014 -0.7742391 -0.8112671 0.15249152
0001b0 dc ef 8a be 0c 22 a8 3d 72 23 01 bf 86 6a 5b bf
       -0.27136123 0.08209619 -0.5044471 -0.85709417
0001c0 bc c6 a9 3e 3a d4 bb 3d 12 ff 56 bf 52 c4 c4 bd
       0.33159435 0.091713384 -0.83982956 -0.09607758
0001d0 de d2 35 3f 55 3d 1a be ae 87 88 c0 63 b2 4d bf
       0.7102488 -0.15062459 -4.2665625 -0.8035032
0001e0 af e9 8a 3f 62 fd b2 bf 73 30 1e 3f 17 a5 28 c0
       1.0852565 -1.3983576 0.6179268 -2.6350763
0001f0 7e 19 14 c0 ac b0 29 3f 08 e6 94 3f 7b cd 0a bf
       -2.314056 0.66285205 1.16327 -0.5421979
000200 9f 3a a0 bf d8 82 53 bf 10 81 35 3f 6c a1 e0 bf
       -1.251789 -0.82621527 0.7090006 -1.7549262
000210 67 7a 9c bf 1b b0 19 3f a3 c6 3f bf f0 25 3c c0
       -1.2224854 0.6003434 -0.7491247 -2.9398155
000220 ce 2d 73 bf 8e 28 af bf c8 a4 57 3e e1 d4 64 bf
       -0.9499177 -1.3684251 0.21058953 -0.8938733
000230 43 14 35 3b 02 97 17 be f4 ab 6c bf cc 51 c3 be
       0.0027630485 -0.14803699 -0.9244988 -0.38148344
000240 a6 ff 92 be 5e a5 cb bf 1c 16 05 be 9b ea 30 bf
       -0.2871067 -1.5909841 -0.12996715 -0.6910798
000250 99 11 a5 3e 09 81 b8 bf cf 16 a7 3e bd 62 6f be
       0.32239988 -1.4414378 0.3263459 -0.2337751
000260 69 dc 0b bf 34 78 01 bf 34 8d c1 be e6 94 4e bc
       -0.54633194 -0.5057404 -0.37803042 -0.012608742
000270 98 cd de 3f b5 14 e6 3d 3e 4b 51 bf 3c 34 5d 3f
       1.7406492 0.11234418 -0.81755435 0.8640783
000280 7b bc 6d be e9 90 15 bf 53 e6 e8 3e d5 00 d6 bd
       -0.23216431 -0.5842424 0.45488223 -0.104493774
000290 f5 c7 14 3f 0b 8b 15 be 32 b8 3f 3f a1 ee f4 3e
       0.5811761 -0.14603822 0.74890435 0.4783831
0002a0 40 cd 8b 3f 25 e2 af bf 3b 5d ce be 56 48 bf bd
       1.0922012 -1.3740889 -0.40305504 -0.09339969
0002b0 cd 39 a4 3e 22 15 ab bf ac b9 dc bf d6 80 a2 bb
       0.32075348 -1.3365824 -1.7244163 -0.004959206
0002c0 f8 0b 58 3f 8f 16 0d bf b4 28 8d 3e 16 9f 06 bf
       0.8439326 -0.55112547 0.27570117 -0.52586496
0002d0 64 17 f3 bd ab 92 3e 3f 56 07 04 be ee d0 eb bc
       -0.11869696 0.7444255 -0.12893423 -0.028786149
0002e0 6b d0 f6 bf 98 1d 1c 3f e3 e6 85 3e 59 91 21 bf
       -1.9282354 0.60982656 0.26152715 -0.6311241
0002f0 d9 5b 26 c0 d3 75 d0 be 75 5b 86 bf b5 06 79 bf
       -2.599356 -0.40714893 -1.049666 -0.9727586
000300 26 e2 a4 3f 54 4e 4b 3f 1d 15 88 3f 7a 0a 39 c0
       1.2881515 0.79416394 1.0631443 -2.8912644
000310 38 63 52 bf 43 b2 a2 3f fa 26 0b bf b3 f8 81 3d
       -0.82182646 1.2710651 -0.5435635 0.06346264
000320 7f d1 12 bc 93 79 d1 3e b6 a7 57 3b b5 4f a9 bd
       -0.008961081 0.40913066 0.003290636 -0.08267156
000330 cb 64 f4 3e db a4 01 bf f5 9b 6e bd f4 81 60 bf
       0.4773315 -0.50642174 -0.0582542 -0.8769829
000340 81 c9 1f 3c f3 2c 23 bf 25 93 ab bd d5 65 9e 3e
       0.009752632 -0.6374046 -0.08377675 0.30937067
000350 53 36 1b be ad 30 af 3d 69 66 09 3f a0 b1 da 3d
       -0.15157442 0.08554206 0.5367189 0.106784105
000360 f6 3f e3 be c8 2a 96 3f df 16 b8 bd 17 7c 3b 3b
       -0.44384736 1.1731806 -0.08988737 0.00286079
000370 66 4a f4 be c6 e8 b2 3e 4e 81 b3 3e 83 88 ad 3b
       -0.47713012 0.34943217 0.3505959 0.0052958145
000380 47 1e a3 3e 8a df 4b 3f d9 78 7f 3e a7 7c 67 bf
       0.31859037 0.7963797 0.24948443 -0.9042458
000390 36 87 05 bf 2f d3 13 3e af 79 07 3f c7 88 6f be
       -0.5215944 0.14436029 0.5292005 -0.2339202
0003a0 00 e2 86 bd 02 32 0c 3f a2 14 1d be 11 b5 e9 bc
       -0.06586075 0.54763806 -0.15339902 -0.028528722
0003b0 58 aa d4 bd 1d 7d 54 bd 08 aa 9b be f8 c8 78 3e
       -0.10384053 -0.05187713 -0.3040316 0.24295413
0003c0 53 52 01 3d bb 47 8d be 5f 56 ea 3e e6 35 92 3e
       0.03157265 -0.27593789 0.4576902 0.28556746
0003d0 f2 2b e6 be 84 03 1b 3e 15 cf 43 be c1 47 26 3e
       -0.44955403 0.1513806 -0.19121964 0.1623831
0003e0 cf 15 18 3e 89 48 f4 be 07 87 a8 be f9 b9 a8 bf
       0.1485207 -0.4771159 -0.32915518 -1.3181754
0003f0 fa 4b 77 be cc 24 81 bc 53 ea 6f be 26 82 36 bf
       -0.24150077 -0.015764616 -0.23429231 -0.7129234

bias f4 [50]
000000 6f 97 0e 41 d6 39 4e 40 b1 21 18 41 9f 28 a0 40
       8.911971 3.22228 9.508225 5.0049586
000010 01 19 36 41 2d 3e cc 40 f8 1c 12 41 34 58 c8 40
       11.381104 6.38259 9.132072 6.260767
000020 6b 13 a6 40 10 b7 0e 41 54 d8 af 40 60 1c e0 40
       5.1898704 8.919693 5.4951572 7.0034637
000030 83 a1 1a 41 4c 10 d8 40 62 b4 3f 40 47 82 dc 40
       9.664432 6.7519894 2.9953847 6.890903
000040 56 00 0e 41 0b 1f 90 40 d5 91 2d 41 59 ac 8f 40
       8.875082 4.5037894 10.848104 4.4897885
000050 85 e9 2c 41 a9 a9 24 41 50 e8 0d 41 0a 50 be 40
       10.807012 10.291421 8.869217 5.9472704
000060 c8 ca 05 41 9c 0b 37 41 3e 9c 25 41 0c 65 6b 40
       8.362007 11.440334 10.350645 3.6780424
000070 fa 05 0a 41 c1 01 dc 40 ff da 31 41 ac 87 3c 41
       8.626459 6.875214 11.115966 11.783123
000080 c2 06 37 41 e5 3f 31 41 59 ac 32 41 58 43 b2 40
       11.43915 11.078099 11.167077 5.5707207
000090 27 63 e8 40 b9 2a 30 41 cf 7d 26 41 78 39 98 40
       7.2621036 11.01043 10.405715 4.757015
0000a0 df 45 c5 40 19 fa 32 41 95 38 ce 40 39 97 8a 40
       6.164779 11.186059 6.444407 4.33096
0000b0 fe c2 2d 41 9a b4 32 41 cd 0f 30 41 a3 79 02 41
       10.8601055 11.169092 11.003858 8.154696
0000c0 3e c5 3c 40 15 4e e9 40
       2.9495387 7.2907815

weight f4 [50]
000000 71 48 01 42 39 2b 06 42 5c 83 04 42 8a 3f 05 42
       32.320744 33.54221 33.12828 33.31205
000010 08 d5 01 42 a2 ef 03 42 d8 5e 01 42 e6 20 04 42
       32.45804 32.984016 32.34262 33.032127
000020 27 7e 04 42 53 cf 02 42 73 e1 04 42 66 1a 06 42
       33.123196 32.702465 33.220165 33.52578
000030 38 0a 01 42 26 c1 04 42 12 df 05 42 be ba 04 42
       32.25998 33.18862 33.467842 33.182365
000040 de 60 01 42 75 61 05 42 3f 3f 02 42 19 2a 05 42
       32.344597 33.345173 32.561764 33.29111
000050 17 63 00 42 e4 af 02 42 19 51 02 42 83 e4 03 42
       32.096767 32.67177 32.579197 32.973156
000060 d1 47 02 42 76 f1 04 42 80 2d 03 42 d8 a2 04 42
       32.570133 33.2358 32.794434 33.159027
000070 95 0a 02 42 ae 4c 03 42 1e c9 00 42 e2 e6 02 42
       32.510334 32.824883 32.196404 32.72547
000080 6b 7d 02 42 0d d5 01 42 02 6d 01 42 05 a1 03 42
       32.62248 32.458057 32.356453 32.907246
000090 0f e8 01 42 6e fc 01 42 52 bd 02 42 d9 21 04 42
       32.47662 32.496513 32.684883 33.033054
0000a0 5d 90 04 42 02 3f 02 42 e4 48 06 42 56 00 06 42
       33.14098 32.56153 33.571182 33.500328
0000b0 1b 5e 01 42 f8 af 01 42 cb 1c 05 42 5d 50 02 42
       32.3419 32.421844 33.27812 32.57848
0000c0 56 e1 04 42 c0 ee 04 42
       33.220055 33.233154

bias f4 [50]
000000 e0 34 73 c2 7b 0a 73 42 ff be 73 c2 ae 3f 73 42
       -60.801636 60.760235 -60.93652 60.812187
000010 f1 dd 72 c2 3a a3 73 42 80 10 73 c2 0d a7 73 42
       -60.71674 60.9094 -60.766113 60.913136
000020 da 0f 73 42 42 eb 73 c2 5a 0a 73 42 08 de 73 42
       60.76548 -60.979744 60.76011 60.966827
000030 a8 22 73 c2 b2 9c 73 42 c5 74 73 42 0e 8d 73 42
       -60.783844 60.903023 60.864033 60.88775
000040 dd ad 73 c2 95 0c 74 42 05 47 73 c2 a5 59 73 42
       -60.91979 61.012287 -60.819355 60.837543
000050 fc de 73 c2 d6 3d 73 c2 3b b1 73 c2 f8 b2 73 42
       -60.96776 -60.810387 -60.923077 60.924774
000060 69 49 73 c2 c2 d6 73 c2 f6 d4 73 c2 d8 1d 73 42
       -60.82169 -60.959724 -60.95797 60.779144
000070 77 47 73 c2 0b 3a 73 42 d5 27 73 c2 c9 f2 72 c2
       -60.81979 60.806683 -60.7889 -60.737095
000080 6f d8 73 c2 df 8e 73 c2 7f c9 72 c2 d2 f5 73 42
       -60.96136 -60.889523 -60.696774 60.99006
000090 b3 cf 73 c2 e0 21 73 c2 38 e7 72 c2 0e 16 74 42
       -60.95283 -60.78308 -60.7258 61.021538
0000a0 ff 95 73 42 41 41 73 c2 2f e7 73 42 48 10 73 42
       60.89648 -60.813725 60.975765 60.7659
0000b0 29 1f 73 c2 02 27 73 c2 6f 85 73 c2 63 88 73 c2
       -60.78043 -60.788094 -60.880306 -60.88319
0000c0 d8 76 73 42 18 53 74 42
       60.86606 61.081146

running_mean f4 [50]
000000 af a2 10 41 ba b8 ba 3f a5 08 1e 41 cb a2 22 40
       9.039718 1.4587624 9.8771105 2.541186
000010 28 fd 3c 41 ac 8b 90 40 18 94 0b 41 ee e1 98 40
       11.811806 4.51705 8.723656 4.7775793
000020 6c 53 36 40 aa ff 22 41 5a d5 6a 40 bf 38 9a 40
       2.8488417 10.187418 3.669272 4.819427
000030 d0 e3 28 41 9a 71 a8 40 29 58 fa 3f e4 be b0 40
       10.555618 5.2638674 1.9558154 5.523302
000040 e3 2a 18 41 ea 50 17 40 6b 2d 3f 41 2c 9b 48 40
       9.51047 2.3643136 11.948588 3.134471
000050 86 1d 39 41 23 b3 1f 41 9d ad 28 41 74 3a 91 40
       11.569708 9.981235 10.542386 4.5383854
000060 f0 93 49 41 85 8d 3d 41 67 4a 39 41 07 d3 cc 3f
       12.598618 11.847051 11.580665 1.60019
000070 22 96 02 41 fd e8 a2 40 e8 d1 37 41 be c6 3b 41
       8.1616535 5.090941 11.488747 11.736021
000080 46 18 50 41 a8 5a 44 41 3c 07 3d 41 49 f3 54 40
       13.005926 12.272133 11.814266 3.327349
000090 3e 08 03 41 a7 29 35 41 3b ec 37 41 3c 21 16 40
       8.189512 11.322669 11.495173 2.3457785
0000a0 83 3c 7e 40 31 8c 32 41 ed 24 91 40 bc 5f 06 40
       3.9724433 11.159226 4.5357575 2.0995932
0000b0 22 cc 3f 41 49 fc 3c 41 dd 60 2d 41 97 06 03 41
       11.987337 11.811593 10.836148 8.189109
0000c0 18 cd bf 3f 1d 6c cb 40
       1.4984465 6.3569474

running_var f4 [50]
000000 41 95 08 41 8c f8 60 41 f0 4b ff 40 5a 0a 75 41
       8.536439 14.06068 7.9780197 15.315027
000010 0c 67 51 40 0b 53 97 41 bd cd b6 40 4f f5 1c 42
       3.2719145 18.915548 5.7126145 39.23956
000020 3f 7b fb 41 23 7e 3e 42 78 28 02 42 9d 6f 1b 42
       31.435179 47.62318 32.53952 38.858997
000030 37 66 e5 40 ec eb 22 42 50 44 90 41 99 16 f1 41
       7.1687274 40.730392 18.033356 30.136034
000040 a8 59 4b 41 cb 83 ca 41 66 09 3f 41 0d a2 27 42
       12.709389 25.314352 11.939795 41.908253
000050 91 95 91 40 15 4b d0 40 28 96 06 42 9e ff 31 42
       4.5495076 6.5091653 33.646637 44.499626
000060 20 90 9b 42 cb 65 86 40 99 7b bb 40 e4 20 50 41
       77.781494 4.199926 5.8588376 13.00803
000070 15 9c af 40 65 db 0f 42 1b a7 34 40 03 9f 23 40
       5.487803 35.964252 2.8226993 2.5565803
000080 be a1 0f 41 db a9 29 41 4d fc d3 40 57 30 a9 41
       8.976988 10.603969 6.6245484 21.148603
000090 1a ae b7 41 cd a8 d7 40 c7 57 b8 40 df db 99 41
       22.96001 6.7393556 5.760715 19.232359
0000a0 5b 02 21 42 3c bb 10 40 49 3c 12 42 5d 46 8a 41
       40.2523 2.2614279 36.558872 17.284357
0000b0 3d c0 92 40 75 49 8c 40 9c 9b 27 40 ca 5f ae 40
       4.5859666 4.383967 2.6188726 5.449193
0000c0 3e 1a 4f 41 0d a7 01 42
       12.943907 32.413136

weight f4 [1, 50]
000000 cf 5e 68 c2 49 96 68 42 87 0e 68 c2 aa 13 68 42
       -58.092587 58.146763 -58.014187 58.019203
000010 f0 a0 68 c2 01 07 68 42 da 78 68 c2 73 bb 67 42
       -58.157166 58.00684 -58.11802 57.933056
000020 58 7d 68 42 84 a9 67 c2 e4 92 68 42 13 00 68 42
       58.122406 -57.915543 58.143448 58.000072
000030 69 8e 68 c2 c8 01 68 42 e8 3c 68 42 4a 12 68 42
       -58.139072 58.00174 58.05948 58.01786
000040 d4 e8 67 c2 96 d2 67 42 e3 5c 68 c2 fa 6b 68 42
       -57.97737 57.95565 -58.09071 58.105446
000050 55 b6 67 c2 82 82 68 c2 34 a7 67 c2 5a d7 67 42
       -57.92806 -58.12745 -57.913284 57.960304
000060 cf 4e 68 c2 2d fc 67 c2 e9 eb 67 c2 00 69 68 42
       -58.07696 -57.996265 -57.98038 58.10254
000070 54 48 68 c2 76 4b 68 42 48 87 68 c2 de 87 68 c2
       -58.070633 58.073692 -58.13211 -58.132683
000080 c6 f9 67 c2 36 21 68 c2 c3 96 68 c2 f1 af 67 42
       -57.99392 -58.032433 -58.14723 57.921818
000090 85 0f 68 c2 bf 7a 68 c2 aa dd 68 c2 05 a4 67 42
       -58.015156 -58.11987 -58.21647 57.910175
0000a0 d3 f8 67 42 37 48 68 c2 12 dd 67 42 77 8a 68 42
       57.992992 -58.070522 57.96589 58.13522
0000b0 42 4e 68 c2 94 36 68 c2 f6 5b 68 c2 04 28 68 c2
       -58.076424 -58.0533 -58.089806 -58.039078
0000c0 76 2d 68 42 53 b2 67 42
       58.044395 57.924145
